models/hey_jarvis.tflite (tflite, 206976 bytes, 9 tensors)

arith.constant f4 [1, 32]
0	0xbe85eb51	-0.26156095
1	0x3d67a0b4	0.056549743
2	0x3df6d6e2	0.120527044
3	0x3e5d2691	0.21596743
4	0xbec4a9d0	-0.38410807
5	0xbddabca6	-0.10680513
6	0x3e4ab3dd	0.19795175
7	0xbd286402	-0.041111
8	0x3dd113e5	0.10208873
9	0x3e0eccc4	0.139453
10	0xbec113e5	-0.3771049
11	0x3d920fcf	0.071319215
12	0xbe0e1e19	-0.13878669
13	0xbea6c017	-0.32568428
14	0xbeb4adac	-0.3528875
15	0xbea38e4f	-0.3194451
16	0x3e79c48e	0.24391386
17	0xbe75e38f	-0.24012588
18	0xbebc1edd	-0.36742297
19	0xbeaf35f3	-0.34220847
20	0x3e2be7f6	0.16787705
21	0x3c96a2e5	0.018388221
22	0x3e4d1801	0.20028688
23	0xbc8e6b2c	-0.017385088
24	0x3dd09178	0.10183996
25	0x3e159945	0.14609249
26	0xbc17c161	-0.009262414
27	0x3d823878	0.06358427
28	0x3e201fff	0.15637206
29	0xbce437f1	-0.027858706
30	0x3e294ab2	0.165324
31	0x3e08a07a	0.13342467

arith.constant1 f4 [32, 32]
0	0xbe0ecf84	-0.13946348
1	0xbc7e9f00	-0.015540838
2	0x3e24cd95	0.16094048
3	0x3db7c25c	0.08972618
4	0x3e14effb	0.1454467
5	0x3deac050	0.11462462
6	0x3d77f260	0.06053388
7	0xbb0f614e	-0.0021878066
8	0x3e23e9a8	0.16007102
9	0x3d0ac8a8	0.033882767
10	0x3de88630	0.11353719
11	0xbcaaed84	-0.02086521
12	0x3ba45ab4	0.0050156955
13	0x3e1984c9	0.1499206
14	0xbc829c0c	-0.01594355
15	0x3c9bbc74	0.01901076
16	0x3d15ed06	0.036602996
17	0xbcdcfc72	-0.026975844
18	0xbd9390d2	-0.07205357
19	0xbe05dc84	-0.13072401
20	0xbe0ffe8a	-0.14061943
21	0xbe147fa7	-0.1450182
22	0x3d5abc9f	0.05340254
23	0x3cd32b33	0.025777435
24	0xbd860586	-0.06544022
25	0x3d9de756	0.077101395
26	0x3d6efb7d	0.058345307
27	0xbb466973	-0.0030275255
28	0xbd9cb104	-0.076509506
29	0xbd84394a	-0.064562395
30	0x3ccaf5cd	0.02477541
31	0x3e162d15	0.14665635
32	0xbd962ccd	-0.07332764
33	0x3c0b709a	0.008510733
34	0xbe34070b	-0.17580812
35	0xbda834ba	-0.08213182
36	0x3df26318	0.11835307
37	0x3dd94cdf	0.10610365
38	0xbd911493	-0.07084002
39	0x3dea702b	0.114471756
40	0x3c94a566	0.018145274
41	0xbd3fb5a9	-0.046804104
42	0xbcfd85be	-0.030947562
43	0x3e30403c	0.17212003
44	0xbe129c14	-0.14317352
45	0x3dd8b0bb	0.10580584
46	0x3de35abb	0.1110129
47	0xbd417689	-0.047232185
48	0x3e36a471	0.17836167
49	0x3def1b8a	0.116751745
50	0xbe0830ba	-0.13299838
51	0x3e034d5b	0.12822478
52	0xbe09df20	-0.13464022
53	0xbc53a7da	-0.012918437
54	0xbdebeb76	-0.1151952
55	0xbe2e7206	-0.17035684
56	0xbe0d1840	-0.13778782
57	0xbc1e9b1a	-0.009680534
58	0x3dbd2fdc	0.09237644
59	0x3de0e9f7	0.10982125
60	0xbd7c30bf	-0.061569925
61	0xbc37a7e1	-0.011209459
62	0x3e021c48	0.12706101
63	0xbe1b45a6	-0.15163288
64	0xbd100ef0	-0.035170496
65	0xbe0811b6	-0.13288006
66	0xbe0749c1	-0.13211729
67	0xbddcd21a	-0.10782261
68	0x3dc0d8d8	0.0941636
69	0xbe047f92	-0.12939289
70	0xbe1d325e	-0.15351245
71	0xbde54b59	-0.11196012
72	0x3e1c129b	0.15241472
73	0x3de5c4c0	0.11219168
74	0xbd7fb0a4	-0.062424317
75	0xbdcd70c2	-0.100312725
76	0x3daf5992	0.08562006
77	0x3d171d68	0.03689328
78	0x3d85f9c0	0.06541777
79	0xbd12fd25	-0.03588595
80	0x3e612985	0.21988495
81	0x3e10b140	0.14130116
82	0x3e4663b2	0.19373968
83	0x3a959f5d	0.0011415292
84	0x3ca57c27	0.020200802
85	0x3dc65101	0.09683419
86	0xbde29cb7	-0.11065047
87	0x3da86585	0.08222488
88	0x3c0aaf9f	0.008464723
89	0x3c3366ab	0.010949771
90	0x3d503117	0.050828066
91	0x3e106e99	0.1410469
92	0xbe0656a4	-0.13118988
93	0x3de4e585	0.1117659
94	0xbd5db0c0	-0.05412364
95	0x3cddff33	0.027099228
96	0xbe43e6f5	-0.19131072
97	0x3b334ca3	0.0027358911
98	0xbd9d1dfe	-0.07671736
99	0xbe2f6011	-0.1712649
100	0x3d95c27a	0.07312484
101	0x3e2cee82	0.16887859
102	0xbd83c682	-0.06434347
103	0x3e2c7889	0.16842856
104	0x3d5f39e7	0.05449858
105	0x3e38d290	0.18049073
106	0x3e0bfdce	0.13671038
107	0x3d5c5862	0.053795226
108	0x3dd1c187	0.102419905
109	0xbe29147d	-0.16511722
110	0xbdb48bf5	-0.08815757
111	0x3cd4b0ba	0.025963176
112	0xbced49dd	-0.028965885
113	0x3e156fe4	0.14593464
114	0x3d58b02c	0.052902386
115	0x3dd9a128	0.10626441
116	0x3e2ff660	0.17183828
117	0x3cbe3c76	0.02322219
118	0x3e2a4144	0.1662646
119	0xbd56075b	-0.05225311
120	0xbe1e849d	-0.15480275
121	0xbdf67045	-0.120331325
122	0x3deb4688	0.11488062
123	0x3dcba358	0.09943265
124	0x3e1cc7ec	0.15310639
125	0x3de33c77	0.11095517
126	0x3da0fd7a	0.07860847
127	0x3e0fbf8d	0.14037915
128	0x3e279d27	0.16368543
129	0x3d628783	0.055305015
130	0x3e2ba416	0.16761813
131	0x3c1bfda1	0.009520919
132	0x3cc344a2	0.023836438
133	0x3d6bcbdd	0.057567466
134	0x3e297ed2	0.16552284
135	0xbdd3b8c1	-0.103379734
136	0x3daf3729	0.08555443
137	0xbd9576bf	-0.0729804
138	0xbdf7439e	-0.12073444
139	0x3ddbed7a	0.107386544
140	0x3e0cc666	0.13747558
141	0x3c39d4a8	0.011342205
142	0xbddd1104	-0.10794261
143	0xbe0391c4	-0.12848574
144	0xbdb308ad	-0.08741889
145	0x3d197897	0.03746852
146	0xbe2ba274	-0.1676119
147	0x3bfe2ff5	0.007757182
148	0xbe0d7d7d	-0.13817401
149	0x3ba80123	0.0051270886
150	0x3d1c30f3	0.03813262
151	0x3e1188a9	0.14212288
152	0x3d649004	0.055801407
153	0xbde7197e	-0.11284159
154	0xbe414951	-0.18875624
155	0x3d9784e1	0.073983915
156	0xbe4d3062	-0.20037988
157	0xb8e31d0d	-0.000108296146
158	0x3d98031b	0.07422467
159	0xbd8d406b	-0.068970524
160	0xbde7bd32	-0.11315383
161	0xbde80460	-0.113289595
162	0xbd519189	-0.051164184
163	0xbd46fda6	-0.04858174
164	0x3e2a7948	0.16647828
165	0xbd034535	-0.032048423
166	0xbdfc1a2c	-0.123096794
167	0xbd61ccd1	-0.05512697
168	0x3c025af8	0.007956259
169	0x3dad1bc0	0.084525585
170	0x3d567da2	0.052365907
171	0xbe32a848	-0.17447007
172	0xbd85ef52	-0.06539787
173	0xbd84cdfb	-0.064846
174	0x3d0e726f	0.0347771
175	0xbd768ef8	-0.06019494
176	0x3dcae67f	0.09907245
177	0xbd3cba02	-0.04607583
178	0xbdcb4573	-0.09925356
179	0x3d9c59cc	0.07634315
180	0x3e405639	0.18782891
181	0xbd9c5e21	-0.07635141
182	0x3dcb15e0	0.09916282
183	0x3de40017	0.1113283
184	0xbdb68ade	-0.089132056
185	0xbd9fa1be	-0.07794522
186	0xbd086fda	-0.033309795
187	0x3e27bdb4	0.1638096
188	0xbe0f7eda	-0.14013234
189	0xbdd2edb7	-0.10299247
190	0x3e05a3df	0.13050793
191	0xbc5fbe81	-0.0136562595
192	0x3d897cde	0.0671327
193	0x3e3b6970	0.1830194
194	0xbbdb8e9e	-0.006700351
195	0xbb65c341	-0.0035059007
196	0x3d540666	0.051763915
197	0x3caf14d6	0.02137224
198	0x3abb72d4	0.0014301189
199	0x3e4f2dc6	0.20232305
200	0x3dada774	0.08479205
201	0x3de54961	0.111956365
202	0x3e1e95dd	0.15486856
203	0xbd68d996	-0.05684813
204	0xbe1405f7	-0.144554
205	0x3ceb3536	0.028711896
206	0xbd55ab83	-0.05216552
207	0xbd8cde4b	-0.068783365
208	0xbdff0a11	-0.12453092
209	0x3c8824db	0.016619137
210	0x3d83b5fa	0.06431194
211	0x3e1b221a	0.15149727
212	0x3d6c1ccb	0.057644647
213	0xbdcee16b	-0.10101589
214	0x3e4a53f4	0.19758588
215	0xbe0b133e	-0.13581559
216	0x3dd9fd25	0.106439866
217	0x3d0f1866	0.034935378
218	0x3b86c321	0.0041126166
219	0xbdfce294	-0.12347904
220	0xbda1001c	-0.07861349
221	0xbdd37f50	-0.10327017
222	0xbdcc35b5	-0.09971181
223	0xbe0d360d	-0.1379015
224	0x3de18dfa	0.11013408
225	0x3dbad7a0	0.091231585
226	0xbdf71b80	-0.12065792
227	0x3dfaecd9	0.12252206
228	0x3e21fffc	0.15820307
229	0x3debd719	0.11515636
230	0x3d4a62f7	0.049410786
231	0x3de3dfb6	0.11126654
232	0x3dcf2c38	0.10115856
233	0xbdc2c348	-0.09509903
234	0xbe3be170	-0.18347716
235	0x3dea0b58	0.11427945
236	0x3b9d8ad9	0.0048078117
237	0x3c12f69f	0.008969932
238	0x3c8f31fb	0.017479887
239	0x3d04e9be	0.032449476
240	0x3ce679cd	0.028134251
241	0xbe2455b8	-0.16048324
242	0x3e1a7f4e	0.15087625
243	0x3e0e459b	0.1389374
244	0x3e0938a2	0.1340051
245	0xbcd0ad47	-0.02547325
246	0xbd3f8694	-0.046759203
247	0x3db088fe	0.08619879
248	0x3e0df9c8	0.13864815
249	0xbe4bcb2b	-0.19901721
250	0xbe15cafc	-0.14628214
251	0x3dd6e2ac	0.10492453
252	0xbe05ab43	-0.13053612
253	0x3d3cdfb4	0.046111777
254	0xbe53d1fb	-0.2068557
255	0x3dd288c5	0.10279993

arith.constant2 f4 [32, 1536]
0	0xbb95a2d7	-0.004566531
1	0xbc603537	-0.013684562
2	0x3c9021a9	0.017594175
3	0x3d159044	0.036514536
4	0xbb25210c	-0.00251967
5	0xbb25046c	-0.0025179638
6	0x3b2fce27	0.0026825757
7	0xbca69cb1	-0.020338388
8	0x3d1e5acd	0.038660813
9	0xbc88abf6	-0.01668356
10	0x3b93f416	0.0045151813
11	0xbb8aa92c	-0.0042315926
12	0x3cb1cd6a	0.021704394
13	0xbcd6c725	-0.026218006
14	0xbc9450f5	-0.01810501
15	0x3ca67611	0.02031997
16	0xbc52d0d6	-0.012867173
17	0x3c114490	0.008866444
18	0xbc8b1e0a	-0.016982097
19	0x3c656326	0.01400069
20	0x3cd26cb9	0.025686609
21	0xbbe6d8c4	-0.0070448834
22	0xbb28d5c6	-0.0025762185
23	0xbcd666fc	-0.026172154
24	0xbc8c5420	-0.017129958
25	0xbc989c77	-0.018629296
26	0xbb1a0f26	-0.0023507564
27	0x3bfbbab1	0.0076821675
28	0xbce89df5	-0.028395632
29	0xbc956649	-0.01823725
30	0xbd03bb77	-0.032161202
31	0x3b0b0058	0.0021209922
32	0xbbbd804f	-0.005783118
33	0xbd2ea433	-0.04263706
34	0x3bba69b9	0.0056888727
35	0xbc05017c	-0.00811803
36	0x3cb60ec5	0.02222384
37	0x3c555d8b	0.013022791
38	0x3cd5431f	0.026032982
39	0xbc3aae16	-0.011394044
40	0x3c4a7729	0.012357512
41	0x3ce3a61b	0.027789166
42	0x3c8e8669	0.017398076
43	0xbc9157fa	-0.017742146
44	0xbcb467f9	-0.022022234
45	0xb97a501d	-0.00023871702
46	0xbc941b0b	-0.018079301
47	0x3c1813ba	0.009282047
48	0x3c7ab63f	0.01530224
49	0xbce251ee	-0.027626958
50	0x3c4dea54	0.012568075
51	0xbd358b2e	-0.044322185
52	0xbb1ab3f8	-0.0023605805
53	0xbd57c069	-0.05267373
54	0x3cadf493	0.021234786
55	0x3bd6c152	0.0065538073
56	0xbc331146	-0.010929411
57	0xbb81f80f	-0.0039663385
58	0xbc6e46df	-0.014543264
59	0x3bf137cb	0.0073613874
60	0xbcb4f6d1	-0.022090347
61	0x3c8deb15	0.01732401
62	0xbc302447	-0.010750837
63	0x3c73082b	0.01483349
64	0x3c44439f	0.011979013
65	0xbc457948	-0.0120528415
66	0x3cba5c3a	0.022749055
67	0xbcdaa40a	-0.026689548
68	0xbb12a9ef	-0.002237912
69	0x3b6d80d1	0.003624011
70	0xbb7a3988	-0.0038181264
71	0xbc0991bf	-0.008396565
72	0x3bf2c70e	0.007408983
73	0xbbd4370a	-0.0064762877
74	0xbc193288	-0.0093504265
75	0xbceae690	-0.028674394
76	0x3c240457	0.0100108
77	0x3bfaef36	0.0076579107
78	0xbcb15c3c	-0.021650426
79	0xbc547c2b	-0.012969057
80	0xbc3eef67	-0.011653758
81	0x3cbd743d	0.023126716
82	0x3b3981a7	0.0028306039
83	0xb9240214	-0.00015641033
84	0xbc139b43	-0.009009185
85	0x3c85e16d	0.016342843
86	0x3b2612d4	0.0025340812
87	0xbb2ab634	-0.0026048543
88	0x3c7ca07a	0.01541912
89	0x3a28432c	0.0006418701
90	0xbc19166a	-0.009343723
91	0x3b9e7db4	0.0048367623
92	0xbbabf25e	-0.0052473983
93	0xbb0a9236	-0.0021144277
94	0x3d25c38e	0.0404697
95	0x3ccd5d5f	0.025068937
96	0x3b2fb623	0.0026811443
97	0x3c9cf4fb	0.019159785
98	0xbbdb107f	-0.006685316
99	0x3d2f1ae8	0.04275027
100	0xbbce1cd7	-0.006290059
101	0xbbc4a92b	-0.0060016117
102	0x3d1d427e	0.03839349
103	0xbd3898a3	-0.04506744
104	0x3d6a9404	0.057270065
105	0x3addb6b6	0.0016915414
106	0xbc031008	-0.007999428
107	0xbcf0df41	-0.02940333
108	0x3ce49fdb	0.027908256
109	0xbd43d1c2	-0.047807463
110	0xbc6d73f7	-0.01449298
111	0x3c653c33	0.013991403
112	0x3bdbd1fc	0.0067083817
113	0xbcd2cbe7	-0.025731994
114	0x3ba11126	0.0049153743
115	0x3cc1a077	0.023636086
116	0x3d15f8f7	0.036614385
117	0xbc2a315b	-0.010387744
118	0xbc8a3780	-0.016872168
119	0xba10e0b0	-0.0005526645
120	0xbcf6bfb9	-0.030120717
121	0x3cc9db2a	0.024640638
122	0xbce603c1	-0.028077962
123	0x3b43bf36	0.002986861
124	0xbaabf583	-0.0013119433
125	0x3bc1f798	0.005919408
126	0xbb0e4fc5	-0.0021715027
127	0x3c40a7c4	0.011758748
128	0xbc21c183	-0.009872797
129	0x3b68eeaa	0.0035542645
130	0x3ca5b5af	0.020228235
131	0x3bdf34a5	0.0068116956
132	0xbb9a0bbb	-0.0047011054
133	0x3ba87802	0.005141259
134	0x3c913865	0.017727086
135	0xbc37eb95	-0.011225601
136	0xbc150f38	-0.009097867
137	0x3b904eed	0.00440394
138	0x3c295b39	0.010336691
139	0x3c126de2	0.008937331
140	0xbb57adbf	-0.0032909957
141	0xbc248bea	-0.010043124
142	0xb8b89a9a	-8.8026005e-05
143	0xbb138bf2	-0.0022513834
144	0x3c47a5f5	0.012185563
145	0x3cb176b3	0.021663046
146	0x3cdfccf3	0.027319407
147	0xbce82493	-0.028337752
148	0x3ce6f64e	0.02819362
149	0xbd4361d3	-0.047700714
150	0x3cdc16d6	0.026866358
151	0x3b564935	0.0032697443
152	0xbc88f6b9	-0.016719209
153	0x3cce3413	0.025171315
154	0x3afc9ab4	0.0019272179
155	0x3c41e1f5	0.0118336575
156	0x3a540608	0.0008088057
157	0x3d147e93	0.036253523
158	0xbc974ff2	-0.018470738
159	0xbc0aae2e	-0.008464379
160	0x3bcfa90c	0.0063372906
161	0x3cdd4439	0.02701007
162	0xbc781247	-0.015141076
163	0xbcdf579e	-0.027263459
164	0xba8e5889	-0.0010860126
165	0x3b880dfa	0.0041520568
166	0xbccba8a3	-0.024860686
167	0x3c2d83f3	0.010590541
168	0xbce52e76	-0.027976256
169	0x3aa11a31	0.0012291131
170	0xbbd0f75f	-0.006377145
171	0xbd2f2929	-0.042763863
172	0x3c6cbb31	0.014448927
173	0x3bcb0465	0.006195592
174	0xbc911dde	-0.017714437
175	0xbb59ff63	-0.0033263795
176	0x3c8adb0f	0.016950158
177	0xbb0a9979	-0.0021148606
178	0x3caddf2e	0.021224584
179	0xbccc0ea4	-0.024909325
180	0x3d05ab89	0.03263429
181	0x3b86dc13	0.0041155904
182	0xbcb2c964	-0.021824546
183	0xbc742056	-0.014900288
184	0xbc43a5af	-0.0119413575
185	0xbc262101	-0.010139705
186	0xbc79df1e	-0.015250949
187	0x3cd7dd63	0.026350683
188	0xbbb123fe	-0.005405902
189	0xbc778cbf	-0.01510924
190	0x3cc52813	0.02406696
191	0x3c51be77	0.012801758
192	0x3c4a71a3	0.012356195
193	0x3ce7755b	0.028254202
194	0xbd29779d	-0.041373838
195	0x3d1f4638	0.038885325
196	0x3c6fdc1e	0.014639882
197	0x3cd50226	0.026002001
198	0x3d3aa9cb	0.045572083
199	0x3acf009c	0.0015793028
200	0x3d12dbc8	0.03585413
201	0xbc0a4bce	-0.008440925
202	0x3c70debf	0.014701544
203	0xbd1e4a08	-0.03864482
204	0x3d072c42	0.033001192
205	0xbd441270	-0.047869146
206	0xbb85f919	-0.0040885326
207	0x3c3d42ed	0.011551601
208	0xbd36d3fc	-0.044635758
209	0xbca4d416	-0.020120662
210	0x3c068ae6	0.008211827
211	0xbcb08a6c	-0.02155038
212	0xbd310749	-0.04321984
213	0xbc90f733	-0.017695999
214	0x3c85a202	0.016312603
215	0xbaa04614	-0.0012227916
216	0xbcb6718b	-0.022270938
217	0x3c8d0568	0.017214492
218	0xbc65f7f5	-0.014036168
219	0xbc2dc0b8	-0.01060503
220	0x3b85d6d0	0.0040844455
221	0x3cd95435	0.02652941
222	0x3ada57ee	0.0016658285
223	0xbca4879b	-0.020084193
224	0xbc94dfa5	-0.018173048
225	0x3c19cdd6	0.009387454
226	0x3c1e063a	0.009645039
227	0xbb7f7630	-0.0038980357
228	0x3c561d32	0.013068484
229	0xbb28bc74	-0.0025747092
230	0x3d20fb71	0.039302293
231	0x3c9fa43b	0.01948749
232	0xbc5d3a39	-0.013502651
233	0xbc82eebf	-0.015982984
234	0x3c89e005	0.016830454
235	0xbbd50421	-0.0065007363
236	0xbc3cfc19	-0.011534714
237	0xbb51e21c	-0.003202564
238	0xbacdec40	-0.0015710667
239	0x3c9a9738	0.018870935
240	0x3c34f02b	0.011043589
241	0xbc44586f	-0.011983975
242	0x3ad727cc	0.0016415059
243	0xbc85df77	-0.016341908
244	0x3d361ed8	0.04446301
245	0xbd8c4ae0	-0.06850219
246	0x3ca46882	0.020069364
247	0xbbe07dd5	-0.006850938
248	0x3bb0df32	0.0053977007
249	0x3bef850b	0.007309561
250	0xbcff5bb4	-0.031171657
251	0x3c9c428a	0.019074697
252	0x3c8e6bda	0.017385412
253	0x3d0f392e	0.03496664
254	0xbc9eecec	-0.019400083
255	0x3d0b83aa	0.03406111

model_8/tf.__operators__.add/AddV2/y f4 [32]
0	0xbbd23286	-0.0064147143
1	0x39a151da	0.00030769297
2	0x3b546be9	0.0032412952
3	0x3b24fac4	0.0025173882
4	0xbb4d9aec	-0.0031372858
5	0x3c51b83a	0.012800271
6	0xbb1bdbed	-0.002378221
7	0xbbc873b7	-0.00611731
8	0xbc74b4c5	-0.014935677
9	0x3c69a21b	0.01425984
10	0x3c9d0bb1	0.019170614
11	0x3c6c60ae	0.014427347
12	0xbc90c184	-0.0176704
13	0x3cfd545e	0.030924018
14	0x3ccfe920	0.025379717
15	0xbc3d735d	-0.011563149
16	0xbc918f13	-0.017768418
17	0xbc8e678b	-0.017383358
18	0xbc7efefc	-0.015563723
19	0x3c58ca79	0.013231867
20	0x3c55c79f	0.013048082
21	0xbc8149ab	-0.015782198
22	0x3c9dd365	0.01926584
23	0x3aa52a45	0.0012601098
24	0xbb9fded3	-0.0048788576
25	0x3b007128	0.0019598696
26	0x3c9f674f	0.019458441
27	0x3cc41903	0.023937708
28	0x3c614f0e	0.013751758
29	0x3c87bf2d	0.016570652
30	0x3cc33549	0.02382912
31	0x3c2f5da9	0.010703483

model_8/tf.__operators__.add_1/AddV2/y f4 [32]
0	0xbd439046	-0.04774501
1	0x3d9f3b9d	0.07775042
2	0x3e2b40f5	0.16723998
3	0xbd9e4f56	-0.07729976
4	0x3e2c664a	0.16835895
5	0xbcbcd0eb	-0.023048839
6	0xbd66112b	-0.056168716
7	0x3ddc96ef	0.10770976
8	0xbe430076	-0.19043145
9	0x3e181418	0.14851415
10	0x3dde1027	0.108429246
11	0xbe074938	-0.13211524
12	0xbc44bdcd	-0.012008143
13	0xbd98a09a	-0.07452507
14	0xbe0ddbc2	-0.13853362
15	0x3db166b1	0.08662165
16	0x3b4bbb9a	0.003108716
17	0x3e0f0c30	0.13969493
18	0x3d947f6b	0.072508655
19	0xbe1c08c5	-0.1523772
20	0x3d8d9094	0.06912342
21	0x3dc8f08f	0.09811508
22	0x3d9a097b	0.075213395
23	0x3e345cf3	0.17613582
24	0xbd335aab	-0.04378764
25	0xbd6cc8d0	-0.057808697
26	0xbdf9c18f	-0.121951215
27	0x3dbfb34c	0.0936037
28	0x3e1cf29b	0.15326922
29	0x3e18a5e7	0.14907037
30	0xbe032d9a	-0.12810364
31	0xbd5984c9	-0.05310515

model_8/tf.math.add_2/Add/y f4 [1, 32]
0	0x3ca729f2	0.020405743
1	0xbc8515df	-0.01624578
2	0x3c82a019	0.015945481
3	0xbc3836c0	-0.011243522
4	0xbc222d11	-0.00989844
5	0x3bf32d42	0.0074211666
6	0x3a440e19	0.00074789074
7	0x3c0dc4c2	0.008652868
8	0xbc2d2e64	-0.010570142
9	0xbc7b9fdd	-0.015357939
10	0x3c9ed0e9	0.019386726
11	0xbc084fff	-0.008319854
12	0xbc0e73fa	-0.008694643
13	0x3c713795	0.014722724
14	0xbc237515	-0.009976645
15	0x3bda092b	0.006653925
16	0x3b82442f	0.0039754133
17	0xbbe5079f	-0.006989434
18	0xbb112962	-0.002214991
19	0x3c19ef29	0.009395399
20	0x3c10079c	0.008790877
21	0x3ba2ed33	0.004972124
22	0xbc46397f	-0.012098669
23	0x3c9dcdc3	0.019263154
24	0xbc7924fe	-0.0152065735
25	0x3c08595f	0.008322089
26	0xbc55f4bb	-0.013058837
27	0xbc01a70e	-0.007913364
28	0xbbdd6af2	-0.0067571336
29	0x3d15c3df	0.03656375
30	0x3c9285b8	0.017886028
31	0xbc79af3c	-0.015239533

model_8/tf.math.add_5/Add/y f4 [1, 32]
0	0x3e912505	0.28348556
1	0x3b063492	0.0020478112
2	0x3d0eaa6f	0.034830507
3	0x3d23d3f2	0.03999705
4	0x3eb29811	0.34881642
5	0xbd8af946	-0.067858264
6	0x3cd89b1e	0.026441153
7	0x3d1ab8a7	0.037773754
8	0x3cc0336c	0.02346202
9	0x3d35cbee	0.044383936
10	0x3e808e5f	0.2510862
11	0x3d10252d	0.035191704
12	0x3de09891	0.109666
13	0x3e91455b	0.28373227
14	0x3e8152ec	0.25258577
15	0x3e83a976	0.25715226
16	0x3d8fa972	0.07014741
17	0x3ea010fc	0.31262958
18	0x3e888d4c	0.266703
19	0x3e9093c2	0.2823773
20	0x3c2c10b4	0.010502029
21	0x3b9c8601	0.0047767167
22	0x3c8ff692	0.017573629
23	0xbb8d2ecf	-0.0043085585
24	0x3dd192dc	0.10233089
25	0x3c58c329	0.013230124
26	0x3c297dd7	0.010344944
27	0xbadc3776	-0.0016801197
28	0x3dacb03a	0.0843205
29	0xbd7e8dea	-0.06214706
30	0x3d2b03cb	0.041751664
31	0x3e0859de	0.13315532

model_8/tf.math.multiply_10/Mul/y f4 [1, 32]
0	0x3f87052f	1.0548457
1	0x3f7c834d	0.9863785
2	0x3f82fb3f	1.0232924
3	0x3f7f85fe	0.9981383
4	0x3f7f5e1d	0.9975298
5	0x3f8090e5	1.0044218
6	0x3f7ca005	0.9868167
7	0x3f81cfda	1.0141556
8	0x3f7e00f4	0.99220204
9	0x3f7da5b8	0.9908099
10	0x3f822332	1.0166991
11	0x3f7f6713	0.99766654
12	0x3f7ce26c	0.9878299
13	0x3f83b2ac	1.0288901
14	0x3f7d4318	0.989305
15	0x3f8030fe	1.0014951
16	0x3f84f7d0	1.0388126
17	0x3f7f56f2	0.99742043
18	0x3f81cfb7	1.0141515
19	0x3f849f7f	1.0361174
20	0x3f81fa63	1.0154537
21	0x3f805305	1.0025336
22	0x3f7d791f	0.9901294
23	0x3f83b81c	1.0290561
24	0x3f7db379	0.9910198
25	0x3f817e33	1.0116638
26	0x3f7f3fcc	0.9970672
27	0x3f7fc3ba	0.9990803
28	0x3f7f97a2	0.9984075
29	0x3f82e73a	1.0226815
30	0x3f82686b	1.0188116
31	0x3f7d212f	0.9887876

model_8/tf.math.multiply_22/Mul/y f4 [1, 32]
0	0x3fa23e0d	1.2675186
1	0x3f81a38e	1.0128038
2	0x3f84b52a	1.0367787
3	0x3f89c59b	1.0763429
4	0x3fba4d2f	1.4554805
5	0x3f70d3a7	0.94072956
6	0x3f8b2ca6	1.0873001
7	0x3f829277	1.0200948
8	0x3f8576f2	1.0426924
9	0x3f87c9cb	1.0608457
10	0x3f9fd3c8	1.2486506
11	0x3f8a1670	1.0788097
12	0x3f87e1e7	1.0615815
13	0x3fa76bfe	1.3079832
14	0x3f9dd511	1.2330648
15	0x3f9e70af	1.2378138
16	0x3f8c7614	1.0973535
17	0x3fa93603	1.3219608
18	0x3fa3d479	1.2799217
19	0x3fa7b814	1.3103051
20	0x3f84e2ba	1.0381691
21	0x3f810158	1.0078535
22	0x3f838626	1.0275314
23	0x3f7f36d8	0.9969306
24	0x3f91af3d	1.1381603
25	0x3f820ac8	1.015954
26	0x3f80af8d	1.0053574
27	0x3f834e87	1.025834
28	0x3f901109	1.1255199
29	0x3f71fd0e	0.94526756
30	0x3f86df67	1.0536927
31	0x3f8f988d	1.121843
